_________________________________________________________________
Layer (type)                 Output Shape              Param #   
=================================================================
embedding_6 (Embedding)      (None, 35, 300)           1565100   
_________________________________________________________________
spatial_dropout1d_4 (Spatial (None, 35, 300)           0         
_________________________________________________________________
gru_7 (GRU)                  (None, 35, 100)           120300    
_________________________________________________________________
gru_8 (GRU)                  (None, 100)               60300     
_________________________________________________________________
dense_7 (Dense)              (None, 3)                 303       
=================================================================
Total params: 1,746,003
Trainable params: 180,903
Non-trainable params: 1,565,100
_________________________________________________________________

Saved at   09-18-2019 18-56-24
              precision    recall  f1-score   support

           0       0.34      0.34      0.34       157
           1       0.41      0.46      0.43       169
…
